{"format": "torch", "nodes": [{"name": "encoders.0", "id": 1222967332480, "class_name": "NeighborhoodEncoder(\n  (fc_layers): ModuleList(\n    (0): Linear(in_features=3, out_features=32, bias=True)\n    (1): Linear(in_features=32, out_features=64, bias=True)\n    (2): Linear(in_features=64, out_features=64, bias=True)\n  )\n  (fc_layers_global): ModuleList(\n    (0): Linear(in_features=64, out_features=64, bias=True)\n    (1): Linear(in_features=64, out_features=32, bias=True)\n    (2): Linear(in_features=32, out_features=8, bias=True)\n  )\n)", "parameters": [["fc_layers.0.weight", [32, 3]], ["fc_layers.0.bias", [32]], ["fc_layers.1.weight", [64, 32]], ["fc_layers.1.bias", [64]], ["fc_layers.2.weight", [64, 64]], ["fc_layers.2.bias", [64]], ["fc_layers_global.0.weight", [64, 64]], ["fc_layers_global.0.bias", [64]], ["fc_layers_global.1.weight", [32, 64]], ["fc_layers_global.1.bias", [32]], ["fc_layers_global.2.weight", [8, 32]], ["fc_layers_global.2.bias", [8]]], "output_shape": [[720, 8]], "num_parameters": [96, 32, 2048, 64, 4096, 64, 4096, 64, 2048, 32, 256, 8]}, {"name": "decoders.0", "id": 1222967332760, "class_name": "GridDeformationDecoder(\n  (fc_layers_global): ModuleList(\n    (0): Linear(in_features=8, out_features=32, bias=True)\n    (1): Linear(in_features=32, out_features=64, bias=True)\n    (2): Linear(in_features=64, out_features=64, bias=True)\n  )\n  (fc_layers): ModuleList(\n    (0): Linear(in_features=66, out_features=64, bias=True)\n    (1): Linear(in_features=64, out_features=32, bias=True)\n    (2): Linear(in_features=32, out_features=3, bias=True)\n  )\n)", "parameters": [["fc_layers_global.0.weight", [32, 8]], ["fc_layers_global.0.bias", [32]], ["fc_layers_global.1.weight", [64, 32]], ["fc_layers_global.1.bias", [64]], ["fc_layers_global.2.weight", [64, 64]], ["fc_layers_global.2.bias", [64]], ["fc_layers.0.weight", [64, 66]], ["fc_layers.0.bias", [64]], ["fc_layers.1.weight", [32, 64]], ["fc_laye
…
